…
Executing Cell 15--------------------------------------
Ending Cell 15-----------------------------------------
Executing Cell 16--------------------------------------
Ending Cell 16-----------------------------------------
Executing Cell 17--------------------------------------
Ending Cell 17-----------------------------------------
Executing Cell 18--------------------------------------
Ending Cell 18-----------------------------------------
Executing Cell 19--------------------------------------
Data existing, skipping creation.

Data existing, skipping creation.

root         INFO     GlimpseNetwork(
  (conv1): Conv2d(5, 16, kernel_size=(3, 3), stride=(1, 1), padding=(1, 1))
  (conv2): Conv2d(16, 16, kernel_size=(3, 3), stride=(1, 1), padding=(1, 1))
  (bn1): BatchNorm2d(16, eps=1e-05, momentum=0.1, affine=True, track_running_stats=True)
  (conv3): Conv2d(16, 16, kernel_size=(3, 3), stride=(1, 1), padding=(1, 1))
  (fc1): Linear(in_features=2304, out_features=256, bias=True)
  (loc_fc1): Linear(in_features=2, out_features=256, bias=True)
)

root         INFO     CoreNetwork(
  (i2h): Linear(in_features=256, out_features=256, bias=True)
  (h2h): Linear(in_features=256, out_features=256, bias=True)
)

root         INFO     LocationNetwork(
  (fc): Linear(in_features=256, out_features=2, bias=True)
)

root         INFO     ActionNetwork(
  (fc): Linear(in_features=256, out_features=10, bias=True)
)

root         INFO     BaselineNetwork(
  (fc): Linear(in_features=256, out_features=1, bias=True)
)

root         INFO     
[*] Train on 18000 samples, validate on 2000 samples

root         INFO     
Epoch: 1/500 - LR: 0.001000

  0%|          | 0/18000 [00:00<?, ?it/s]
  0%|          | 0/18000 [00:44<?, ?it/s]


root         INFO     train loss: -0.248 - train acc: 25.183 - action: 1.430, baseline: 0.252 reinforce: -1.930 - val loss: -1.496 - val acc: 24.300 [*]
…
