…
Downloading http://yann.lecun.com/exdb/mnist/t10k-images-idx3-ubyte.gz to ./data/MNIST/raw/t10k-images-idx3-ubyte.gz



HBox(children=(FloatProgress(value=1.0, bar_style='info', max=1.0), HTML(value='')))
Extracting ./data/MNIST/raw/t10k-images-idx3-ubyte.gz to ./data/MNIST/raw
Downloading http://yann.lecun.com/exdb/mnist/t10k-labels-idx1-ubyte.gz to ./data/MNIST/raw/t10k-labels-idx1-ubyte.gz

HBox(children=(FloatProgress(value=1.0, bar_style='info', max=1.0), HTML(value='')))
Extracting ./data/MNIST/raw/t10k-labels-idx1-ubyte.gz to ./data/MNIST/raw
Processing...
Done!

root         INFO     GlimpseNetwork(
  (conv1): Conv2d(3, 16, kernel_size=(3, 3), stride=(1, 1), padding=(1, 1))
  (conv2): Conv2d(16, 16, kernel_size=(3, 3), stride=(1, 1), padding=(1, 1))
  (bn1): BatchNorm2d(16, eps=1e-05, momentum=0.1, affine=True, track_running_stats=True)
  (conv3): Conv2d(16, 16, kernel_size=(3, 3), stride=(1, 1), padding=(1, 1))
  (fc1): Linear(in_features=2304, out_features=256, bias=True)
  (loc_fc1): Linear(in_features=2, out_features=256, bias=True)
)

root         INFO     CoreNetwork(
  (i2h): Linear(in_features=256, out_features=256, bias=True)
  (h2h): Linear(in_features=256, out_features=256, bias=True)
)

root         INFO     LocationNetwork(
  (fc): Linear(in_features=256, out_features=2, bias=True)
)

root         INFO     ActionNetwork(
  (fc): Linear(in_features=256, out_features=10, bias=True)
)

root         INFO     BaselineNetwork(
  (fc): Linear(in_features=256, out_features=1, bias=True)
)

root         INFO     
[*] Train on 54000 samples, validate on 6000 samples

root         INFO     
Epoch: 1/500 - LR: 0.001000

  0%|          | 0/54000 [00:00<?, ?it/s]


  0%|          | 0/54000 [01:30<?, ?it/s]


root         INFO     train loss: 1.665 - train acc: 35.481 - action: 1.640, baseline: 0.193 reinforce: -0.168 - val loss: 1.455 - val acc: 57.017 [*]
…
